…
--- DIAGNOSTIC START ---
Labels: ['angry', 'disgust', 'fear', 'happy', 'neutral', 'sad']
Num Classes: 6
Scaler Mean Shape: (220,)
Scaler Mean (first 5): [-297.9194421482686, 95.84099527228554, 2.6248297432967633, 33.57898007808171, -7.252264837235528]
Model Input Shape: (None, 220)
Model Output Shape: (None, 6)
Model: "sequential"
+--------------------------------------------------------------------------+
| Layer (type)                    | Output Shape           |       Param # |
|---------------------------------+------------------------+---------------|
| dense (Dense)                   | (None, 256)            |        56,576 |
|---------------------------------+------------------------+---------------|
| batch_normalization             | (None, 256)            |         1,024 |
| (BatchNormalization)            |                        |               |
|---------------------------------+------------------------+---------------|
| dropout (Dropout)               | (None, 256)            |             0 |
|---------------------------------+------------------------+---------------|
| dense_1 (Dense)                 | (None, 128)            |        32,896 |
|---------------------------------+------------------------+---------------|
| batch_normalization_1           | (None, 128)            |           512 |
| (BatchNormalization)            |                        |               |
|---------------------------------+------------------------+---------------|
| dropout_1 (Dropout)             | (None, 128)            |             0 |
|---------------------------------+------------------------+---------------|
| dense_2 (Dense)                 | (None, 64)             |         8,256 |
|---------------------------------+------------------------+---------------|
| dropout_2 (Dropout)             | (None, 64)             |             0 |
|---------------------------------+------------------------+---------------|
| dense_3 (Dense)                 | (None, 6)              |           390 |
+--------------------------------------------------------------------------+
 Total params: 297,428 (1.13 MB)
 Trainable params: 98,886 (386.27 KB)
 Non-trainable params: 768 (3.00 KB)
 Optimizer params: 197,774 (772.56 KB)
--- DIAGNOSTIC END ---
