…
 This TensorFlow 
binary is optimized to 
use available CPU 
instructions in 
performance-critical 
operations.
To enable the 
following 
instructions: SSE3 
SSE4.1 SSE4.2 AVX AVX2 
FMA, in other 
operations, rebuild 
TensorFlow with the 
appropriate compiler 
flags.
INFO:__main__:Successfu
lly loaded model with 
TF Keras
Model: "sequential_3"
+--------------------------------------------------------------------------+
| Layer (type)                    | Output Shape           |       Param # |
|---------------------------------+------------------------+---------------|
| dense_11 (Dense)                | (None, 256)            |        56,576 |
|---------------------------------+------------------------+---------------|
| batch_normalization_4           | (None, 256)            |         1,024 |
| (BatchNormalization)            |                        |               |
|---------------------------------+------------------------+---------------|
| dropout_8 (Dropout)             | (None, 256)            |             0 |
|---------------------------------+------------------------+---------------|
| dense_12 (Dense)                | (None, 128)            |        32,896 |
|---------------------------------+------------------------+---------------|
| batch_normalization_5           | (None, 128)            |           512 |
| (BatchNormalization)            |                        |               |
|---------------------------------+------------------------+---------------|
| dropout_9 (Dropout)             | (None, 128)            |             0 |
|---------------------------------+------------------------+---------------|
| dense_13 (Dense)                | (None, 64)             |         8,256 |
|---------------------------------+------------------------+---------------|
| dropout_10 (Dropout)            | (None, 64)             |             0 |
|---------------------------------+------------------------+---------------|
| dense_14 (Dense)                | (None, 6)              |           390 |
+--------------------------------------------------------------------------+
 Total params: 297,428 (1.13 MB)
 Trainable params: 98,886 (386.27 KB)
 Non-trainable params: 768 (3.00 KB)
 Optimizer params: 197,774 (772.56 KB)
INFO:__main__:First 
layer weight shape: 
(256,)
INFO:__main__:First 
layer weight mean: 
0.9954712986946106
INFO:__main__:First 
layer weight std: 
0.0860564187169075
INFO:__main__:Python: 
…
